sentiment_analysis_LSTM.tflite (tflite, 725144 bytes, 16 tensors)

arith.constant1 f4 [128]
00000000: 9556 923d 695c a5bc dff3 0d3d 2d9c b8bc
00000010: d502 02bd 8fec 853d f8db 11bc 121a 1f3d
00000020: 0dc0 fcbb a08e 4f3e 92ed 0e3d 71ba 3f3e
00000030: 7f94 88bc ae4a c5bc e080 a53d 58e9 063e
00000040: ad92 f6bc 9db6 b4bc 36bc abbc e982 f1bb
00000050: 117c 80bc 4320 14bd c2b1 bdbc 936f 3c3e
00000060: a287 b0bc 0c5e 3d3d 60dc e8bb 5ca0 6a3d
00000070: 5c57 673d 69dc c1bb 11e0 f0bc ffb5 233e
00000080: 1a88 63bc f1ce 183e 5f4d 1bbc 5f32 eebc
00000090: 3343 20bc 89c4 d63c b5cb a43d 13cc a2bc
000000a0: 4722 a4bc ccdc 7b3d 3d7e a0bc 785b b0bc
000000b0: 20d7 49bc 8dbd 83bc 8114 cebc 4f40 07bd
000000c0: e676 0fbc 3b26 24bc f1b7 c4bb 9a0c 453e
000000d0: 9eef 02bc 4e2f f83c 17ba 3d3e 2e22 0abd
000000e0: 1ed9 bcbc 2803 033e c0b2 893d 915b 153d
000000f0: 6fd1 e4ba 64c5 b4bc 2a8c 133d f18e 493e
00000100: d410 e9bc 0904 bcbc ff30 c6bc 3974 90bb
00000110: 480c eb3d 445e 2a3e 8f55 57bc 39e1 f6bb
00000120: 381b cfbc eeae 143e 6c7c 78bb 00fc 443d
00000130: 5503 433e c8e1 28bc d83d 93bc ca4d 08bd
00000140: 796f 383e 8cf9 fbbb 4003 c13d 8b5b 6abb
00000150: 54f5 8ebc b39c 673d 3ade d1ba c865 45bd
00000160: 7141 dcba 0e89 43bc 3117 773c 048e 23bc
00000170: afab d5bc eb11 7c3d c8d7 1ebb 5467 74ba
00000180: a9c8 28bc 4555 c1bc 154b 02bd f2a2 50bc
00000190: ab04 fcbc 7d6c d3bb 63f4 03bd fb43 f7bb
000001a0: 1f7d cdbc e141 89bc c081 aabc 16c1 373d
000001b0: b455 deb9 5e1b c2bb 46c5 40bc a655 b73d
000001c0: 1653 9dbb 5ce5 253e f97f e1bc 52a3 f2bb
000001d0: 59d7 24bc 3740 83bc 2705 073e 0045 c13d
000001e0: 8b0f 0abc d036 48bc 7b25 b3bc 41ec c7bc
000001f0: 08d6 86bc 0957 babc 5305 e6bb 628f 54ba
0.071454205 -0.020185666 0.0346564 -0.022535408 -0.031740982 0.065392606 -0.008902542 0.038843222
-0.007713324 0.20269251 0.034894533 0.18723466 -0.016672371 -0.024083462 0.080812216 0.13174951
-0.030099237 -0.022059733 -0.02096377 -0.007370342 -0.01568416 -0.03616358 -0.02315605 0.18401937
-0.02154905 0.04623227 -0.007106349 0.057281837 0.056479797 -0.0059161675 -0.029403718 0.15987395
-0.01388743 0.14922692 -0.009478896 -0.029076753 -0.009781647 0.026216762 0.080466665 -0.0198727
-0.020035876 0.061489865 -0.019591445 -0.02152799 -0.012319356 -0.016081596 -0.025156261 -0.033020314
-0.008756375 -0.0100188805 -0.006003373 0.19243088 -0.0079916995 0.030295994 0.18528019 -0.033724003
-0.023052748 0.12794173 0.06723547 0.036464278 -0.0017457436 -0.02206678 0.036022343 0.19683434
-0.028450407 -0.022951143 -0.024193285 -0.004408386 0.11476952 0.16637522 -0.013142957 -0.007534173
-0.025281534 0.14519855 -0.0037915958 0.04809189 0.1904424 -0.010307737 -0.017973825 -0.03327731
0.18011273 -0.0076896604 0.09424448 -0.003576013 -0.017450966 0.056545924 -0.0016011663 -0.04819277
-0.0016804171 -0.011934532 0.015081213 -0.00998259 -0.026082842 0.061540525 -0.0024237502 -0.00093232584
-0.010301747 -0.02360023 -0.031809885 -0.012734162 -0.030763945 -0.006452142 -0.032215487 -0.0075459457
-0.025084076 -0.016755046 -0.020813823 0.044861875 -0.00042406993 -0.0059236726 -0.011765784 0.08951883
-0.0048011644 0.16200775 -0.027526842 -0.007404723 -0.0100611085 -0.016021831 0.13185559 0.09436989
-0.008426557 -0.0122201 -0.021868458 -0.024404647 -0.01645948 -0.02274658 -0.0070196777 -0.0008108524

arith.constant16 f4 [1, 128]
00000000: c78b d0be b92d 04be 584f 00bf 9e80 11be
00000010: d921 ed3c fb8f edbe 03ff b3bb 0499 01bf
00000020: ea81 ffbc f21d b73e 2d19 09bf 198d d33e
00000030: b6b3 7c3c 9f64 c63d b6cd f9be 5d4e c03e
00000040: b9fe f8bc 42d1 02bc c06f 393e 0fb5 303e
00000050: 7bcb 9a3c c62d febd 6900 03bd a5fc cd3e
00000060: 40a6 8abd 2799 0bbf f2e3 54be ba27 f4be
00000070: 4336 e1be f171 34be 30dd c33c 42ae d23e
00000080: 4560 1bbe 261a c33e 8d98 173c fbbe a9bd
00000090: d475 49bd ecc0 09bf 3ca4 e13e 8a3a ba3d
000000a0: 9885 be39 d2ea 0fbf edd3 bfbc d862 363a
000000b0: f6c7 ca3b 5d53 81bd 981e d9bd 0caf 9dbd
000000c0: f9f7 a3bd 7b75 1a3c fa93 5cbc 3b31 b03e
000000d0: 1c2a d93d a72b 09bf 2a4c b33e 639b 3139
000000e0: 1a04 ec3d 829e fb3e b59b f8be b921 09bf
000000f0: 8921 0b3e f922 25be 8215 09bf 3f84 aa3e
00000100: 48fa 18bd 9055 903d 4ba5 84bd 228f ef3d
00000110: 1584 083f baf6 d63e ac78 163e 3d98 87bb
00000120: 13b9 97bd 4288 aa3e a22e 9abc ddb2 ffbe
00000130: ebed c83e b6ae a6bd 5278 e5bd 3872 a23d
00000140: f29b c03e 9856 44be 2a27 cabe 7662 e5bd
00000150: f7a6 f2bd 6778 04bf ef88 ec3d 1f2c d7bb
00000160: 8fed 2fbe 1a1a 92bd 8d53 10bf 02ae 90bc
00000170: 6349 333e 0a1a e9be 5774 053d 802f d5ba
00000180: 3a03 de3d d107 743b a532 f43d 22dd a13b
00000190: 6f48 8e3d 1aa9 8bbc e7e7 3d3c a9d9 4dbe
000001a0: c342 e93d 29ea e93d ccdd f73d 8349 05bf
000001b0: 8291 463d 68c8 69bd 1072 49bb f32c e8be
000001c0: e00c 99bd 2f53 df3e 973d ac3c 1b72 2fbe
000001d0: 9b05 073e 315e 4abb 6a95 db3e 2929 e83e
000001e0: 5460 e6bd 163a 363e 7ad9 463c f1ed 13bd
000001f0: d5e6 1c3d fe22 ad3d 4f4f 11be f23b 15be
-0.40731642 -0.12908067 -0.5012107 -0.1420922 0.028946804 -0.4639891 -0.0054930463 -0.5062411
-0.031189878 0.35765034 -0.5355404 0.41318586 0.015423706 0.09687161 -0.48789757 0.37559786
-0.030394899 -0.007984461 0.18109035 0.17256568 0.018895855 -0.12411074 -0.031982813 0.40231815
-0.06769991 -0.54530567 -0.20790079 -0.4768656 -0.4398671 -0.1762159 0.023909181 0.41148573
-0.15173443 0.38105887 0.0092526795 -0.0828838 -0.049184635 -0.5381 0.44070613 0.09093197
0.0003633916 -0.5621768 -0.023416484 0.0006957478 0.006188388 -0.063147284 -0.106015384 -0.07699403
-0.080062814 0.009427424 -0.013463015 0.3441256 0.10603735 -0.53582233 0.35019046 0.00016937921
0.1152422 0.4914437 -0.48556295 -0.5356708 0.13587011 -0.16126622 -0.53548443 0.3330402
-0.03734806 0.0704757 -0.0647684 0.11697222 0.5332654 0.41985112 0.1469447 -0.0041380213
-0.07408347 0.3330708 -0.018821064 -0.4994115 0.39244017 -0.08138792 -0.1120459 0.07931942
0.37618977 -0.19173658 -0.39483005 -0.112004206 -0.11848252 -0.5174622 0.115495555 -0.006566539
-0.17180465 -0.07133885 -0.5637749 -0.017661098 0.17508464 -0.4552768 0.032581653 -0.0016264766
0.10840459 0.0037236104 0.11923722 0.004939691 0.06947409 -0.017048407 0.011590934 -0.20102562
0.11389687 0.11421616 0.12102851 -0.52065295 0.04847861 -0.057075888 -0.0030738153 -0.45346794
-0.07473159 0.43618152 0.021025462 -0.17133372 0.13185732 -0.0030878896 0.4288743 0.45343903
-0.11248842 0.17795596 0.012136811 -0.03611559 0.038306076 0.0845394 -0.1419041 -0.14573649

tfl.pseudo_qconst i1 [128, 64]
00000000: 10fd 0b03 07f7 f903 0110 0705 07bf 1107
00000010: 11f9 f811 05fb fa04 08d8 1efe f9fe da08
00000020: fdf6 05f0 1802 1105 0281 09f4 f7f1 f903
00000030: 07e6 ecf7 f80e f9fe f1ff 0731 0009 4c2b
00000040: 0000 0000 0000 0000 0000 0000 0000 0000
00000050: 0000 0000 0000 0000 0000 0000 0000 0000
00000060: 0000 0000 0000 0000 0000 0000 0000 0000
00000070: 0000 0000 0000 0000 0000 0000 0000 0000
00000080: 0ef7 0203 03fc 0202 f90c 0606 04c5 0d08
00000090: 0efc f40b 08fb fdfb 0ff3 2107 fbff ec09
000000a0: fdfa 04fd 14fd 0a01 0a81 06f1 fbf9 fdff
000000b0: fceb f8f9 040c fcff fb06 0725 fb07 4a2e
000000c0: 0000 0000 0000 0000 0000 0000 0000 0000
000000d0: 0000 0000 0000 0000 0000 0000 0000 0000
000000e0: 0000 0000 0000 0000 0000 0000 0000 0000
000000f0: 0000 0000 0000 0000 0000 0000 0000 0000
16 -3 11 3 7 -9 -7 3
1 16 7 5 7 -65 17 7
17 -7 -8 17 5 -5 -6 4
8 -40 30 -2 -7 -2 -38 8
-3 -10 5 -16 24 2 17 5
2 -127 9 -12 -9 -15 -7 3
7 -26 -20 -9 -8 14 -7 -2
-15 -1 7 49 0 9 76 43
0 0 0 0 0 0 0 0
0 0 0 0 0 0 0 0
0 0 0 0 0 0 0 0
0 0 0 0 0 0 0 0
0 0 0 0 0 0 0 0
0 0 0 0 0 0 0 0
0 0 0 0 0 0 0 0
0 0 0 0 0 0 0 0
14 -9 2 3 3 -4 2 2
-7 12 6 6 4 -59 13 8
14 -4 -12 11 8 -5 -3 -5
15 -13 33 7 -5 -1 -20 9
-3 -6 4 -3 20 -3 10 1
10 -127 6 -15 -5 -7 -3 -1
-4 -21 -8 -7 4 12 -4 -1
-5 6 7 37 -5 7 74 46
0 0 0 0 0 0 0 0
0 0 0 0 0 0 0 0
0 0 0 0 0 0 0 0
0 0 0 0 0 0 0 0
0 0 0 0 0 0 0 0
0 0 0 0 0 0 0 0
0 0 0 0 0 0 0 0
0 0 0 0 0 0 0 0

tfl.pseudo_qconst1 i1 [5000, 128] scale=0.005266375 zero_point=0
00000000: e42f 520f fcf7 fb81 2fe0 1d19 fe0d d7c7
00000010: f8f0 1fe5 081c 011c 4e16 0003 efe9 33e5
00000020: 1ab4 1aee 6816 b81f 17ba cc2b 19c3 2cfa
00000030: 2f23 f817 f9ba eb3d f418 f5f6 50d8 1d25
00000040: 0109 00c9 cddb 353c e000 36e3 e3e7 18ec
00000050: 3a52 f3b5 f22c dc27 132e 11e6 38e7 0ab3
00000060: 0b26 cbf0 1a34 fefa 0c2e 4c07 ea0b 18bf
00000070: 0af0 18f7 cbf0 fd00 4916 c408 a110 e4ec
00000080: fb09 0df5 0205 f50e 0901 04fd 07fd f2ea
00000090: fe0c 17f7 fbf6 0b03 0e08 fbf8 20f3 02f3
000000a0: 04fd 10e0 01f2 04f9 16ec f70a 0010 01fd
000000b0: 0d0e fa09 0501 f912 05f7 07f1 13fe fefa
000000c0: 13fc 0104 f41d 14fc ec00 e0fa df07 eb0b
000000d0: 0a13 19fb 06e7 fdf5 190b 0309 0a0e ecf4
000000e0: fd03 e60f ea04 0afc 0004 0bf9 02f6 00f0
000000f0: f5f2 f61e f6f9 09f8 fa07 ece8 01fd 16fd
-0.1474585 0.24751963 0.43184274 0.07899562 -0.0210655 -0.047397375 -0.026331875 -0.6688296
0.24751963 -0.168524 0.15272488 0.13165937 -0.01053275 0.06846287 -0.21592137 -0.30018336
-0.042131 -0.084262 0.16325763 -0.14219213 0.042131 0.1474585 0.005266375 0.1474585
0.41077724 0.115860246 0.0 0.015799124 -0.089528374 -0.12112662 0.26858512 -0.14219213
0.13692574 -0.4002445 0.13692574 -0.09479475 0.54770297 0.115860246 -0.379179 0.16325763
0.12112662 -0.36864623 -0.27385148 0.22645412 0.13165937 -0.32124886 0.23172049 -0.031598248
0.24751963 0.18432312 -0.042131 0.12112662 -0.036864623 -0.36864623 -0.11059387 0.32124886
-0.063196495 0.12639299 -0.057930123 -0.05266375 0.42131 -0.210655 0.15272488 0.19485587
0.005266375 0.047397375 0.0 -0.28965062 -0.26858512 -0.19485587 0.27911788 0.3159825
-0.168524 0.0 0.28438425 -0.15272488 -0.15272488 -0.13165937 0.12639299 -0.1053275
0.30544975 0.43184274 -0.06846287 -0.3949781 -0.07372925 0.23172049 -0.1895895 0.20538862
0.100061126 0.24225324 0.089528374 -0.13692574 0.294917 -0.13165937 0.05266375 -0.40551087
0.057930123 0.20012225 -0.27911788 -0.084262 0.13692574 0.27385148 -0.01053275 -0.031598248
0.063196495 0.24225324 0.4002445 0.036864623 -0.115860246 0.057930123 0.12639299 -0.34231436
0.05266375 -0.084262 0.12639299 -0.047397375 -0.27911788 -0.084262 -0.015799124 0.0
0.38444537 0.115860246 -0.3159825 0.042131 -0.5003056 0.084262 -0.1474585 -0.1053275
-0.026331875 0.047397375 0.06846287 -0.057930123 0.01053275 0.026331875 -0.057930123 0.07372925
0.047397375 0.005266375 0.0210655 -0.015799124 0.036864623 -0.015799124 -0.07372925 -0.115860246
-0.01053275 0.063196495 0.12112662 -0.047397375 -0.026331875 -0.05266375 0.057930123 0.015799124
0.07372925 0.042131 -0.026331875 -0.042131 0.168524 -0.06846287 0.01053275 -0.06846287
0.0210655 -0.015799124 0.084262 -0.168524 0.005266375 -0.07372925 0.0210655 -0.036864623
0.115860246 -0.1053275 -0.047397375 0.05266375 0.0 0.084262 0.005266375 -0.015799124
0.06846287 0.07372925 -0.031598248 0.047397375 0.026331875 0.005266375 -0.036864623 0.09479475
0.026331875 -0.047397375 0.036864623 -0.07899562 0.100061126 -0.01053275 -0.01053275 -0.031598248
0.100061126 -0.0210655 0.005266375 0.0210655 -0.063196495 0.15272488 0.1053275 -0.0210655
-0.1053275 0.0 -0.168524 -0.031598248 -0.17379037 0.036864623 -0.11059387 0.057930123
0.05266375 0.100061126 0.13165937 -0.026331875 0.031598248 -0.13165937 -0.015799124 -0.057930123
0.13165937 0.057930123 0.015799124 0.047397375 0.05266375 0.07372925 -0.1053275 -0.063196495
-0.015799124 0.015799124 -0.13692574 0.07899562 -0.115860246 0.0210655 0.05266375 -0.0210655
0.0 0.0210655 0.057930123 -0.036864623 0.01053275 -0.05266375 0.0 -0.084262
-0.057930123 -0.07372925 -0.05266375 0.15799125 -0.05266375 -0.036864623 0.047397375 -0.042131
-0.031598248 0.036864623 -0.1053275 -0.12639299 0.005266375 -0.015799124 0.115860246 -0.015799124

arith.constant21 f4 [64]
00000000: 9447 68bd cf1d 17bd 0229 9bbd 5c74 adbd
00000010: d3cd 0cbe 1966 22be 795c 56bd aa20 00be
00000020: 4db4 bbbd 0151 c0bb 8132 6ebc 3c52 aabd
00000030: b75e a03d 0c42 c8bd 9723 b4bd 6c3d e3bd
00000040: d583 93bd d2f5 debd 4269 8fbd fae3 923b
00000050: 2437 08bd 0258 67bd 21fe 55bd eb21 c4bd
00000060: c7dd ebbd e68f eabd ffe5 fcbd e9c1 3dbe
00000070: 07ae 80bd d373 d0bd a9e0 9fbd 25c0 01bd
00000080: dc3e 60bd 6590 e1bd 03b0 473d 0f2a b4bd
00000090: 8e6d a9bd c4bb adbd a78b f3bd 292f febd
000000a0: 67d2 b9bc 7c09 d4bb 3a6c 49bd 2474 5dbd
000000b0: aa5e 1abc 5b7b 8dbd c356 0dbd 4389 62bd
000000c0: c2bb 94bd c7c8 d5bd 63c7 ffbd 77b3 753a
000000d0: 70f7 e9bd f0bf b2bd 8609 babc 2115 28be
000000e0: 7069 48bd b9c5 08be e62d c8bc daf9 83bd
000000f0: dd43 dabd b383 0cbe a629 c3bd 20fa 24bc
-0.056708887 -0.036893662 -0.07576181 -0.084694594 -0.1375039 -0.1585926 -0.052334283 -0.1251246
-0.09165249 -0.0058690314 -0.014538408 -0.08316466 0.078305654 -0.097782224 -0.08795851 -0.110957
-0.07202879 -0.1088673 -0.07002498 0.0044827433 -0.03325571 -0.056480415 -0.05224431 -0.09576782
-0.1151691 -0.11453228 -0.12348556 -0.18531002 -0.06283193 -0.10178342 -0.078065224 -0.031677384
-0.054747447 -0.11013869 0.048751842 -0.087970845 -0.08272849 -0.08483079 -0.11891871 -0.12411339
-0.022683335 -0.006470857 -0.04917548 -0.05406584 -0.009421984 -0.06908294 -0.03450657 -0.055306684
-0.072623745 -0.10438686 -0.12489202 0.00093727506 -0.11424148 -0.087280154 -0.02270962 -0.1641431
-0.048928678 -0.13356675 -0.024435949 -0.0644414 -0.10657475 -0.13722114 -0.09529428 -0.0100694

arith.constant22 f4 [64]
00000000: 5317 e23c ea6d 9e3d 4358 663d 7610 fb3c
00000010: d3cf 823d 99c3 6abd ec5a 9c3d 6ef9 823c
00000020: 7756 593d 0600 5e3d cfa7 313d f93c 793c
00000030: e2bc c73d 6469 94b9 3c6b 28ba 7d4a 123d
00000040: 79e1 c63c 5cdf 5bbb 33cc 4bbd 6bc4 15bd
00000050: 175a 1a3d f4bb 8fbc 205b a3bc 05a5 8bbc
00000060: 89a5 2d3c 2c5d 0bbd b7df 25bc fe3c 32bd
00000070: e665 1d3d e676 2d3c b469 2c3d 3407 9d3c
00000080: 1edc 02bd 3517 86bc fbf5 823c 8dac 22bd
00000090: cc36 c33c 4155 a53b f5e8 d03b 4d8d 47bb
000000a0: 83cc 233d 4b3d de3d f632 a33d 8d6a e1bb
000000b0: 486d 5ebc d8f5 17bd c78b 67bd 6166 b93c
000000c0: a6cc 863c eca7 84bc 83f9 04bd 42f5 063b
000000d0: 5d48 76bd be0b 123d 9c48 cebd 064f 88bb
000000e0: 216a 38bd 63ae 01bd 9ec1 ae3b be0b 92bd
000000f0: aa72 913b 1850 9fbc 76de a03b f461 9d3b
0.027599012 0.07735808 0.056236517 0.030647498 0.063872956 -0.057315443 0.076345295 0.015988078
0.053060975 0.05419924 0.043372925 0.015212291 0.097528234 -0.00028307282 -0.00064246706 0.03571557
0.024277436 -0.003354988 -0.049755286 -0.036564272 0.037683573 -0.017545678 -0.019940913 -0.01704646
0.010598549 -0.034024402 -0.010124139 -0.043515198 0.038427256 0.01058743 0.042092994 0.019168474
-0.0319482 -0.016368488 0.015986433 -0.03971534 0.02382984 0.0050455634 0.006375427 -0.0030449212
0.03998996 0.108515345 0.079687044 -0.006879157 -0.013575859 -0.03709969 -0.056529786 0.022631826
0.016455006 -0.016193353 -0.032464515 0.0020592962 -0.060127605 0.03565573 -0.10072443 -0.004159811
-0.045023087 -0.03166045 0.0053331396 -0.07131146 0.004438718 -0.019447371 0.004909332 0.0048029367

arith.constant23 f4 [64]
00000000: 14b9 863f 06e5 763f edd2 803f d5a6 683f
00000010: 3700 803f fd77 723f 480f 663f caba 683f
00000020: fe5b 7b3f 410c 883f bdef 843f 21b1 7f3f
00000030: 8fb3 9a3f 3b8d 833f 9ddc 763f bbc1 6d3f
00000040: 2418 6f3f c179 833f 9c19 723f fff8 863f
00000050: bb59 743f db07 823f 1e27 883f 42b1 713f
00000060: 7c6b 5c3f dd45 6c3f 0af5 843f 6845 5c3f
00000070: a581 743f 0b6a 633f 49da 793f d543 883f
00000080: 47b2 813f 6559 753f f791 8f3f 191d 773f
00000090: b97b 813f e46a 6a3f 10e1 713f 125c 6e3f
000000a0: 78d8 893f 0fc0 b63f 4fc0 863f 8ae2 8a3f
000000b0: 7dfc 893f d4e6 803f 32b1 823f a1a8 683f
000000c0: 1d79 7b3f f40c 7d3f 7abd 6f3f 20c0 893f
000000d0: 8872 653f d66b 853f 4d87 853f ccc5 783f
000000e0: c598 883f 1078 753f ec49 883f 1a6f 923f
000000f0: 5ed4 6b3f 19bd 7a3f fbde 8e3f 7215 813f
1.0525231 0.9644321 1.006437 0.90879565 1.0000066 0.9471434 0.8986707 0.9091002
0.98187244 1.062874 1.0385662 0.9987965 1.2086047 1.0277475 0.9643038 0.92873734
0.9339621 1.0271531 0.94570327 1.0544738 0.9544942 1.0158647 1.0636938 0.944111
0.8610151 0.922941 1.038728 0.86043406 0.9551032 0.88833684 0.975987 1.0645701
1.0132531 0.9583953 1.121642 0.96528774 1.0115882 0.9156935 0.94484043 0.9310924
1.0769186 1.4277362 1.0527438 1.0850384 1.0780178 1.0070443 1.0210326 0.9088231
0.9823168 0.9884789 0.93648493 1.0761757 0.89627886 1.0423534 1.0431916 0.97176814
1.0671622 0.95886326 1.0647559 1.1440156 0.9212092 0.9794479 1.1161798 1.008467

arith.constant24 f4 [64]
00000000: 4a8f 00bd c51f f9bd 74e5 87bd ec5b 84bd
00000010: aeb3 31be 86dc 08be c4f3 debc 071f eabd
00000020: f11f cebd 4945 14bc 08de 943b d200 c3bd
00000030: fa12 25be 62c6 06be a438 d5bd f4b9 d6bd
00000040: 4deb f5bd b781 b3bd b7e3 cdbd 3c5d 77bc
00000050: e7a4 cdbc e293 8abd c748 f6bc b5fc 0cbe
00000060: 5354 ebbd ea51 30be 6a2b e7bd e9c8 1dbe
00000070: 6c0d 5abd 4159 d7bd 47de 7bbd d3cd e7bc
00000080: b45e 21bd 58ca 70bd f306 663d 0101 94bd
00000090: d15f acbd 1433 acbd 10f7 1cbe 031b e2bd
000000a0: 0571 1fbd e7f4 ecbc fd56 17bd 6ec8 f0bd
000000b0: 0749 b73c 3105 aebd 8168 babc 3269 26bd
000000c0: a26c c0bd 253c d4bd a4ec cebd 164b 723b
000000d0: d243 b3bd e60a 5dbd 6fda 61bc f642 13be
000000e0: aebd 96bd da5a 12be 0a73 c4ba 5e2c 2dbd
000000f0: 6ec5 bbbd bee1 f1bd 3d66 05be 3d81 96bd
-0.03138665 -0.12164263 -0.066355616 -0.06462845 -0.17353699 -0.13365373 -0.027215846 -0.11431699
-0.10064686 -0.009049722 0.0045430698 -0.09521641 -0.1612052 -0.13161615 -0.10411194 -0.104846865
-0.12007771 -0.087649755 -0.10053199 -0.015097912 -0.025103046 -0.06766488 -0.030064 -0.13768275
-0.11490693 -0.17218748 -0.112875775 -0.15408672 -0.053235456 -0.10515071 -0.061491277 -0.028296387
-0.039396957 -0.05878672 0.05615897 -0.07226754 -0.08416713 -0.0840818 -0.15328622 -0.11040308
-0.038926143 -0.028925372 -0.036948193 -0.11756979 0.02237369 -0.08497084 -0.02275491 -0.040627666
-0.0939572 -0.10363034 -0.10103729 0.0036971024 -0.0875317 -0.05396547 -0.013784989 -0.14381012
-0.07360397 -0.1429247 -0.0014987898 -0.04227864 -0.09168516 -0.11810635 -0.13027282 -0.07348869

tfl.pseudo_qconst2 i1 [64, 128]
00000000: 0be4 f2e1 bae1 f634 1b0a c5fe a40e f3c5
00000010: cabf ee02 0cc6 b9ee 31f9 fbff 5e12 4113
00000020: 4807 2aeb e42d df34 3dfe f1fb 0946 050c
00000030: 2902 f3fc 18e9 2038 e913 f72d f2fc bc15
00000040: f77f b111 079e f844 fbda 410d eebd 62f3
00000050: 0c0a 1f2e 30ef 4532 4205 2802 bab9 25d9
00000060: 0211 f040 0fe4 48b8 0423 ebd5 fa2a df09
00000070: 23ec fcfc 043f 402a 08ec bc3c ce06 00e8
00000080: 0dec ecea a400 0333 1bce 22db bc39 50c7
00000090: f2ba bac7 3d2e d32c 6810 0b08 29f6 f997
000000a0: 7f3b 3eef 3629 b740 f3f2 acff 78ca 3726
000000b0: f9cb 2004 4ec2 cedb 956d d1f1 47c3 f1e2
000000c0: fd15 e1cb 92b2 df62 ed92 4101 e9c6 630d
000000d0: 6b4e ff16 eb07 353c 72a5 2e1b d5d6 2cf4
000000e0: 15fd 1d1e 4842 58df eefa f1cc c51c 32fa
000000f0: 152e 5038 c8f7 5907 21fc 0431 07d7 0421
11 -28 -14 -31 -70 -31 -10 52
27 10 -59 -2 -92 14 -13 -59
-54 -65 -18 2 12 -58 -71 -18
49 -7 -5 -1 94 18 65 19
72 7 42 -21 -28 45 -33 52
61 -2 -15 -5 9 70 5 12
41 2 -13 -4 24 -23 32 56
-23 19 -9 45 -14 -4 -68 21
-9 127 -79 17 7 -98 -8 68
-5 -38 65 13 -18 -67 98 -13
12 10 31 46 48 -17 69 50
66 5 40 2 -70 -71 37 -39
2 17 -16 64 15 -28 72 -72
4 35 -21 -43 -6 42 -33 9
35 -20 -4 -4 4 63 64 42
8 -20 -68 60 -50 6 0 -24
13 -20 -20 -22 -92 0 3 51
27 -50 34 -37 -68 57 80 -57
-14 -70 -70 -57 61 46 -45 44
104 16 11 8 41 -10 -7 -105
127 59 62 -17 54 41 -73 64
-13 -14 -84 -1 120 -54 55 38
-7 -53 32 4 78 -62 -50 -37
-107 109 -47 -15 71 -61 -15 -30
-3 21 -31 -53 -110 -78 -33 98
-19 -110 65 1 -23 -58 99 13
107 78 -1 22 -21 7 53 60
114 -91 46 27 -43 -42 44 -12
21 -3 29 30 72 66 88 -33
-18 -6 -15 -52 -59 28 50 -6
21 46 80 56 -56 -9 89 7
33 -4 4 49 7 -41 4 33

tfl.pseudo_qconst3 i1 [64, 128]
00000000: 85d3 312b 3e39 b310 07a0 5f51 df69 2358
00000010: aea2 2cd0 5b27 dff3 05bf 1cc7 c9a7 62e4
00000020: 0a42 ee17 e911 23d3 ced2 3b3b d350 4bf2
00000030: 38d1 7273 3be9 0f2f 3ce3 3e15 d708 44c8
00000040: 54df fcc1 541b a126 41f3 51ea 3bf7 48fd
00000050: 2f34 1667 8506 0aec 150f e305 ddbf 1431
00000060: eba1 e4db 09cf 95ae b59f 484e c3b7 24f8
00000070: 06e6 7f09 f7d4 04e2 9fc1 2877 d036 dae0
00000080: bca6 b737 1241 1c4e fff7 0a47 fef6 fc52
00000090: dbd2 04b5 2904 b915 209a a39e b4b3 3bb8
000000a0: 0e1d cebd fa0a eeb0 950f 2e20 e65d 3544
000000b0: 06a4 cf01 cc0c f5e9 e532 2415 1ef2 2e81
000000c0: dec7 d6f2 22e9 2a20 07cc fe16 70f8 4835
000000d0: bd0d ab4c de4e 1e07 1217 121b 0be8 3c11
000000e0: 33c0 2b00 4eaf bf1d d9ba ee35 cef7 1217
000000f0: a2d4 0dd8 360f 590c 0435 f00f 0dfd 0451
-123 -45 49 43 62 57 -77 16
7 -96 95 81 -33 105 35 88
-82 -94 44 -48 91 39 -33 -13
5 -65 28 -57 -55 -89 98 -28
10 66 -18 23 -23 17 35 -45
-50 -46 59 59 -45 80 75 -14
56 -47 114 115 59 -23 15 47
60 -29 62 21 -41 8 68 -56
84 -33 -4 -63 84 27 -95 38
65 -13 81 -22 59 -9 72 -3
47 52 22 103 -123 6 10 -20
21 15 -29 5 -35 -65 20 49
-21 -95 -28 -37 9 -49 -107 -82
-75 -97 72 78 -61 -73 36 -8
6 -26 127 9 -9 -44 4 -30
-97 -63 40 119 -48 54 -38 -32
-68 -90 -73 55 18 65 28 78
-1 -9 10 71 -2 -10 -4 82
-37 -46 4 -75 41 4 -71 21
32 -102 -93 -98 -76 -77 59 -72
14 29 -50 -67 -6 10 -18 -80
-107 15 46 32 -26 93 53 68
6 -92 -49 1 -52 12 -11 -23
-27 50 36 21 30 -14 46 -127
-34 -57 -42 -14 34 -23 42 32
7 -52 -2 22 112 -8 72 53
-67 13 -85 76 -34 78 30 7
18 23 18 27 11 -24 60 17
51 -64 43 0 78 -81 -65 29
-39 -70 -18 53 -50 -9 18 23
-94 -44 13 -40 54 15 89 12
4 53 -16 15 13 -3 4 81

tfl.pseudo_qconst4 i1 [64, 128]
00000000: ec17 57f5 e304 e8df 42ef eae6 e21a e78e
00000010: 1510 00fa f4ee e33e 3c27 ee28 44fc 2cd9
00000020: f1d5 1efd 502f a83f 1ed4 e937 3cec 2aec
00000030: 5425 fe26 00db ce52 180f f0f5 16e8 f204
00000040: 2745 0fef ced5 2d34 f5f1 27f4 f1b2 5db5
00000050: 3829 03d6 2a0b e543 1a3c 0cef e2e0 fcf1
00000060: f928 0200 f63c 07ce 1160 2ae9 cd53 1481
00000070: 1cef ec1c c623 1f3e 0ae0 1105 f3f9 c012
00000080: f93f 37d1 40c6 d4fa e022 e3a4 18c3 1ff2
00000090: 32d4 e65b 3001 bed2 407f 5913 4df4 e42d
000000a0: 030f ebfd 0708 ec57 3e35 ebf9 fc91 ddd0
000000b0: e517 3940 17bb ccd1 e8df c0ee 0111 eb38
000000c0: 0b0f f5ff 2ce8 5ffe d4d8 2c18 e1ba 2e98
000000d0: 5c0e e9e5 d202 4449 f6e2 04bb 2ce7 be5f
000000e0: 0e2e e9e1 e66d 38d7 fd40 12ed ecc8 cd8e
000000f0: 2709 0442 0e36 3504 fe2e e6de 0f2e bffb
-20 23 87 -11 -29 4 -24 -33
66 -17 -22 -26 -30 26 -25 -114
21 16 0 -6 -12 -18 -29 62
60 39 -18 40 68 -4 44 -39
-15 -43 30 -3 80 47 -88 63
30 -44 -23 55 60 -20 42 -20
84 37 -2 38 0 -37 -50 82
24 15 -16 -11 22 -24 -14 4
39 69 15 -17 -50 -43 45 52
-11 -15 39 -12 -15 -78 93 -75
56 41 3 -42 42 11 -27 67
26 60 12 -17 -30 -32 -4 -15
-7 40 2 0 -10 60 7 -50
17 96 42 -23 -51 83 20 -127
28 -17 -20 28 -58 35 31 62
10 -32 17 5 -13 -7 -64 18
-7 63 55 -47 64 -58 -44 -6
-32 34 -29 -92 24 -61 31 -14
50 -44 -26 91 48 1 -66 -46
64 127 89 19 77 -12 -28 45
3 15 -21 -3 7 8 -20 87
62 53 -21 -7 -4 -111 -35 -48
-27 23 57 64 23 -69 -52 -47
-24 -33 -64 -18 1 17 -21 56
11 15 -11 -1 44 -24 95 -2
-44 -40 44 24 -31 -70 46 -104
92 14 -23 -27 -46 2 68 73
-10 -30 4 -69 44 -25 -66 95
14 46 -23 -31 -26 109 56 -41
-3 64 18 -19 -20 -56 -51 -114
39 9 4 66 14 54 53 4
-2 46 -26 -34 15 46 -65 -5

tfl.pseudo_qconst5 i1 [64, 128]
00000000: 27e4 ed16 ce30 bb4b 30da fd19 d927 1bf8
00000010: 15c3 f2f7 39e4 d5c1 01f5 e8f9 121d 1da3
00000020: f8c8 d4ef ce16 c2f8 d01e fcdf f343 f23d
00000030: 0d04 e6c4 13b9 a340 ea20 3f3c 1f2f d41d
00000040: 3b22 f84d 1310 d915 da04 19f8 cb34 0205
00000050: 0a01 00fd f848 3e11 c8dc 4d10 bdd0 3d0c
00000060: fbd5 1a2a f73c f1e5 19cb f313 be17 18bd
00000070: 321d 2ac2 d07f 3c1b ece9 b230 0221 f0d3
00000080: d1ed bc5f d021 de35 c1bd 0f27 f023 2646
00000090: cdc2 a0dc 6e00 deec fdf6 d5c2 1cde e3f6
000000a0: ebe9 dfa3 9b16 1e1d a52e 4781 354d ec35
000000b0: d7d3 28ec 0149 d6c3 eae9 7811 4126 29f7
000000c0: 29a1 dee6 70eb cee7 4ba4 41fe 394a 0d2f
000000d0: e9fa eb21 b156 1aeb b7f5 0af5 d9e1 3028
000000e0: 2b06 2e1f 00e9 d836 baa9 d63c d000 47e1
000000f0: 0b3a 2428 ffe0 fdfc c907 c009 67ed 3ce1
39 -28 -19 22 -50 48 -69 75
48 -38 -3 25 -39 39 27 -8
21 -61 -14 -9 57 -28 -43 -63
1 -11 -24 -7 18 29 29 -93
-8 -56 -44 -17 -50 22 -62 -8
-48 30 -4 -33 -13 67 -14 61
13 4 -26 -60 19 -71 -93 64
-22 32 63 60 31 47 -44 29
59 34 -8 77 19 16 -39 21
-38 4 25 -8 -53 52 2 5
10 1 0 -3 -8 72 62 17
-56 -36 77 16 -67 -48 61 12
-5 -43 26 42 -9 60 -15 -27
25 -53 -13 19 -66 23 24 -67
50 29 42 -62 -48 127 60 27
-20 -23 -78 48 2 33 -16 -45
-47 -19 -68 95 -48 33 -34 53
-63 -67 15 39 -16 35 38 70
-51 -62 -96 -36 110 0 -34 -20
-3 -10 -43 -62 28 -34 -29 -10
-21 -23 -33 -93 -101 22 30 29
-91 46 71 -127 53 77 -20 53
-41 -45 40 -20 1 73 -42 -61
-22 -23 120 17 65 38 41 -9
41 -95 -34 -26 112 -21 -50 -25
75 -92 65 -2 57 74 13 47
-23 -6 -21 33 -79 86 26 -21
-73 -11 10 -11 -39 -31 48 40
43 6 46 31 0 -23 -40 54
-70 -87 -42 60 -48 0 71 -31
11 58 36 40 -1 -32 -3 -4
-55 7 -64 9 103 -19 60 -31

tfl.pseudo_qconst6 i1 [64, 64]
00000000: dcf2 e716 1e3c 0a27 de2f 2611 81f0 d856
00000010: c6fa f25e 21e1 1b16 eb0d f526 06e3 e6fb
00000020: 0725 d613 0e0c 4bef fe8b 0022 051d 05de
00000030: bee4 0a4c d6f4 3dd6 1804 2bd0 e2ec ebc7
00000040: b00b eb04 cb57 c501 8125 e02e b02d 311e
00000050: 3ae4 2203 ee16 f807 3d11 17be 1220 e5f4
00000060: cd0a b80c c348 4927 fc34 26a9 eed0 d212
00000070: 07ba cfcd dde5 4929 3151 d906 ba0c f719
00000080: d0ed 34d5 3913 e7e6 f1d9 c6c9 b713 f0f0
00000090: 03d9 0efc fac0 16bd 384b 4f11 c7ec cd4a
000000a0: 1107 1403 fa16 1a1d 0fa8 cce3 c5e5 ead8
000000b0: e745 26ee d5d8 3241 7f03 065a 0ac7 f1ca
000000c0: e400 fb25 cd3f 04e1 63d7 c1cd 7f14 de34
000000d0: 1252 4cdf 0407 02da f6fa f001 22c3 03da
000000e0: df0a ee27 c123 e62e 220f d549 e1f9 3ad8
000000f0: 0e4a 3f26 d206 4563 c7da f52b f3de 2ebb
-36 -14 -25 22 30 60 10 39
-34 47 38 17 -127 -16 -40 86
-58 -6 -14 94 33 -31 27 22
-21 13 -11 38 6 -29 -26 -5
7 37 -42 19 14 12 75 -17
-2 -117 0 34 5 29 5 -34
-66 -28 10 76 -42 -12 61 -42
24 4 43 -48 -30 -20 -21 -57
-80 11 -21 4 -53 87 -59 1
-127 37 -32 46 -80 45 49 30
58 -28 34 3 -18 22 -8 7
61 17 23 -66 18 32 -27 -12
-51 10 -72 12 -61 72 73 39
-4 52 38 -87 -18 -48 -46 18
7 -70 -49 -51 -35 -27 73 41
49 81 -39 6 -70 12 -9 25
-48 -19 52 -43 57 19 -25 -26
-15 -39 -58 -55 -73 19 -16 -16
3 -39 14 -4 -6 -64 22 -67
56 75 79 17 -57 -20 -51 74
17 7 20 3 -6 22 26 29
15 -88 -52 -29 -59 -27 -22 -40
-25 69 38 -18 -43 -40 50 65
127 3 6 90 10 -57 -15 -54
-28 0 -5 37 -51 63 4 -31
99 -41 -63 -51 127 20 -34 52
18 82 76 -33 4 7 2 -38
-10 -6 -16 1 34 -61 3 -38
-33 10 -18 39 -63 35 -26 46
34 15 -43 73 -31 -7 58 -40
14 74 63 38 -46 6 69 99
-57 -38 -11 43 -13 -34 46 -69

tfl.pseudo_qconst7 i1 [64, 64]
00000000: 4b38 4919 4bbd c4e6 0f29 7fec 20ed 41f0
00000010: f928 0801 d904 e1df d3ce 0c19 f311 2238
00000020: f62d 0ad1 fbf2 2e24 5206 0db9 d9f5 34ce
00000030: f82d d3e9 1120 d9e1 e49f 273d ed0e 15fc
00000040: 2be3 d5d9 d3e8 1518 0cbd 1eb0 2c22 d826
00000050: 0f2d e70d 4c27 d1c0 f6a2 cb02 3622 2014
00000060: dce4 463c 197f 1216 04ea 1cf5 e9e4 de05
00000070: eeec 23fa 12de 06f9 f004 f5ab 091a e7ee
00000080: db7f d132 32e5 1c02 210d 6515 dfde 46f9
00000090: d430 b922 f5a8 de32 dbef 1a0e 0730 3336
000000a0: 1f33 4aec 33d7 20e5 4528 edda 01c5 ea4c
000000b0: e8db fba9 f22d d4bc bdf6 4ff9 0634 f4f1
000000c0: fdd4 d7fd 0035 9b34 2d03 e1b5 a4fb 2332
000000d0: dee5 e429 1ffc e221 4a0f e504 e9c0 3381
000000e0: 06e8 e9fc f00c f929 e460 03a4 7af7 e2d0
000000f0: 0899 0e5c 19e4 dcd1 10a1 c915 4db3 0bff
75 56 73 25 75 -67 -60 -26
15 41 127 -20 32 -19 65 -16
-7 40 8 1 -39 4 -31 -33
-45 -50 12 25 -13 17 34 56
-10 45 10 -47 -5 -14 46 36
82 6 13 -71 -39 -11 52 -50
-8 45 -45 -23 17 32 -39 -31
-28 -97 39 61 -19 14 21 -4
43 -29 -43 -39 -45 -24 21 24
12 -67 30 -80 44 34 -40 38
15 45 -25 13 76 39 -47 -64
-10 -94 -53 2 54 34 32 20
-36 -28 70 60 25 127 18 22
4 -22 28 -11 -23 -28 -34 5
-18 -20 35 -6 18 -34 6 -7
-16 4 -11 -85 9 26 -25 -18
-37 127 -47 50 50 -27 28 2
33 13 101 21 -33 -34 70 -7
-44 48 -71 34 -11 -88 -34 50
-37 -17 26 14 7 48 51 54
31 51 74 -20 51 -41 32 -27
69 40 -19 -38 1 -59 -22 76
-24 -37 -5 -87 -14 45 -44 -68
-67 -10 79 -7 6 52 -12 -15
-3 -44 -41 -3 0 53 -101 52
45 3 -31 -75 -92 -5 35 50
-34 -27 -28 41 31 -4 -30 33
74 15 -27 4 -23 -64 51 -127
6 -24 -23 -4 -16 12 -7 41
-28 96 3 -92 122 -9 -30 -48
8 -103 14 92 25 -28 -36 -47
16 -95 -55 21 77 -77 11 -1

tfl.pseudo_qconst8 i1 [64, 64]
00000000: 16df f706 d51d f2e1 df2a d220 9e09 eb02
00000010: e081 e5da 4428 1232 dc34 e052 d1ce b00e
00000020: ef28 f920 09ec 210e 35d8 148f 104b d6ea
00000030: c3c8 3a26 e6ec f0fb 0325 dce7 3e15 e025
00000040: bc03 ec09 f009 c937 e314 ee10 35f9 d7fb
00000050: dd1b fc02 29df 2971 3436 1f3c ed14 0b2e
00000060: d4fa e82c f11b 25e0 df26 05df 1a0d deba
00000070: eee4 44c3 f402 ff7f 31ca d8a9 4b9d dc3c
00000080: 47cb b6e6 e80a 080a 23dc 1742 f140 29ee
00000090: ff86 ee1c 1f1c 2a00 7ff2 4177 b515 f834
000000a0: 124d 26e6 6202 43ef 1fb3 65ed d22b d832
000000b0: 2fd6 ec0d dcfe 0df6 3f43 077a 7507 6be4
000000c0: a7fb e528 e04b ff2b 5607 f791 7f64 0c1d
000000d0: c54e fbf0 b2fa 1b1a e8c1 e000 1ec7 e9a3
000000e0: 04ad e8f6 b0f3 b634 bc0c c26c 1415 fbc9
000000f0: 376e ee39 fef3 23e5 1ff2 c402 229d cfc3
22 -33 -9 6 -43 29 -14 -31
-33 42 -46 32 -98 9 -21 2
-32 -127 -27 -38 68 40 18 50
-36 52 -32 82 -47 -50 -80 14
-17 40 -7 32 9 -20 33 14
53 -40 20 -113 16 75 -42 -22
-61 -56 58 38 -26 -20 -16 -5
3 37 -36 -25 62 21 -32 37
-68 3 -20 9 -16 9 -55 55
-29 20 -18 16 53 -7 -41 -5
-35 27 -4 2 41 -33 41 113
52 54 31 60 -19 20 11 46
-44 -6 -24 44 -15 27 37 -32
-33 38 5 -33 26 13 -34 -70
-18 -28 68 -61 -12 2 -1 127
49 -54 -40 -87 75 -99 -36 60
71 -53 -74 -26 -24 10 8 10
35 -36 23 66 -15 64 41 -18
-1 -122 -18 28 31 28 42 0
127 -14 65 119 -75 21 -8 52
18 77 38 -26 98 2 67 -17
31 -77 101 -19 -46 43 -40 50
47 -42 -20 13 -36 -2 13 -10
63 67 7 122 117 7 107 -28
-89 -5 -27 40 -32 75 -1 43
86 7 -9 -111 127 100 12 29
-59 78 -5 -16 -78 -6 27 26
-24 -63 -32 0 30 -57 -23 -93
4 -83 -24 -10 -80 -13 -74 52
-68 12 -62 108 20 21 -5 -55
55 110 -18 57 -2 -13 35 -27
31 -14 -60 2 34 -99 -49 -61

tfl.pseudo_qconst9 i1 [64, 64]
00000000: e1c9 df1d b2d6 2b05 1fe8 23bf 9615 d702
00000010: ab0b 1b39 1ff2 5ff6 d35c 8c42 09c5 ba18
00000020: 0171 ce5e a513 61dc f6b3 7fd5 2507 16ba
00000030: d0cd ed07 666a f81b 5e46 c10c 1c10 3cdf
00000040: afd8 d9d9 caff c1ec e785 ae92 8142 c6ae
00000050: 902f 31fc 2638 3821 0ddb c24a 0df3 f3f2
00000060: 4113 c533 8b41 21fa b56e fd20 3812 3408
00000070: d33c 3351 4f9b 6e3e 4736 d6f2 0589 b719
00000080: e1cf 092f afef f444 e0c9 17bd d2f7 1dfb
00000090: cfbc 0500 1a3e d7f7 c7fc 0b2e aac9 ee32
000000a0: e37f 001f 19eb 1ff7 08b4 1ce2 11f7 1d0a
000000b0: ee11 f4b0 7ad0 e12a 0a0b de1a 1524 19fb
000000c0: 0dbb 0a0c ffdd 12ed f1d5 c9f0 4140 fe0e
000000d0: 2b07 4fe7 910f 5add d0f8 061e d7d8 afc4
000000e0: 22a4 cc54 05ee ba15 c404 9829 14f9 f819
000000f0: 057a 1b11 18ec 05dd 1e1e 81e9 289b b1d4
-31 -55 -33 29 -78 -42 43 5
31 -24 35 -65 -106 21 -41 2
-85 11 27 57 31 -14 95 -10
-45 92 -116 66 9 -59 -70 24
1 113 -50 94 -91 19 97 -36
-10 -77 127 -43 37 7 22 -70
-48 -51 -19 7 102 106 -8 27
94 70 -63 12 28 16 60 -33
-81 -40 -39 -39 -54 -1 -63 -20
-25 -123 -82 -110 -127 66 -58 -82
-112 47 49 -4 38 56 56 33
13 -37 -62 74 13 -13 -13 -14
65 19 -59 51 -117 65 33 -6
-75 110 -3 32 56 18 52 8
-45 60 51 81 79 -101 110 62
71 54 -42 -14 5 -119 -73 25
-31 -49 9 47 -81 -17 -12 68
-32 -55 23 -67 -46 -9 29 -5
-49 -68 5 0 26 62 -41 -9
-57 -4 11 46 -86 -55 -18 50
-29 127 0 31 25 -21 31 -9
8 -76 28 -30 17 -9 29 10
-18 17 -12 -80 122 -48 -31 42
10 11 -34 26 21 36 25 -5
13 -69 10 12 -1 -35 18 -19
-15 -43 -55 -16 65 64 -2 14
43 7 79 -25 -111 15 90 -35
-48 -8 6 30 -41 -40 -81 -60
34 -92 -52 84 5 -18 -70 21
-60 4 -104 41 20 -7 -8 25
5 122 27 17 24 -20 5 -35
30 30 -127 -23 40 -101 -79 -44
